week1/simple_nn.pth (torch, 10155 bytes, 6 tensors)

weight f4 [25, 37]
0	0xbcf74900	-0.030186176
1	0xbdc2b7b9	-0.095076986
2	0xbd01cbf4	-0.031688645
3	0x3db768da	0.08955546
4	0xbdcc588a	-0.09977825
5	0xbe1ec132	-0.15503386
6	0x3dc15f96	0.0944206
7	0x3db7409e	0.089478716
8	0x3d575920	0.05257523
9	0x3d5711e4	0.052507296
10	0x3de3694a	0.11104067
11	0x3d57f668	0.052725226
12	0x3abec380	0.0014554113
13	0xbdf1f02d	-0.11813388
14	0x3dd06f7e	0.101775154
15	0x3b52e300	0.003217876
16	0xbd94de1c	-0.072689265
17	0x3c3f5460	0.011677831
18	0x3d9989d2	0.0749699
19	0x3e219993	0.1578124
20	0xbb33b5c0	-0.0027421564
21	0xbe13a13f	-0.14416979
22	0xbdec46e8	-0.11536962
23	0x3d530050	0.05151397
24	0xbd565472	-0.052326627
25	0xbe0a7a46	-0.13523206
26	0x3c01f0a0	0.007930905
27	0xbdacc4e8	-0.084359944
28	0x3e0d697f	0.13809775
29	0xbd967710	-0.07346928
30	0x3e237f53	0.15966539
31	0xbe03eaf4	-0.12882596
32	0xbd0ae21c	-0.03390704
33	0x3dc61106	0.09671216
34	0xbcff64f0	-0.03117606
35	0xbdc4b27e	-0.09604357
36	0xbe1aa6bc	-0.15102667
37	0xbdfcc5f8	-0.12342447
38	0x3d04aeec	0.03239338
39	0xbe242b7f	-0.16032217
40	0x3c2810c0	0.0102579
41	0x3dec6dda	0.1154439
42	0xbd126e58	-0.035749763
43	0xbd890a62	-0.066914335
44	0xbddaa714	-0.10676399
45	0x3c59f2e0	0.013302535
46	0x3debd35a	0.115149215
47	0xbcce70e0	-0.025200307
48	0xbe091b0f	-0.13389228
49	0xbdb5f599	-0.08884735
50	0x3e1c62c3	0.1527205
51	0x3e226cb5	0.15861781
52	0x3d04fa28	0.03246513
53	0x3e21d6b7	0.15804563
54	0x3e103e2f	0.14086221
55	0xbe22611d	-0.15857358
56	0xbd336e24	-0.04380621
57	0xbc021ec0	-0.007941902
58	0x3e07cc85	0.13261612
59	0xbcc83fc0	-0.02444446
60	0xbdc607e9	-0.096694775
61	0x3df132ae	0.117772445
62	0xbe1583fe	-0.14601132
63	0x3df1986a	0.11796649
64	0x3e1d84e5	0.15382726
65	0x3e231391	0.15925433
66	0xbd7db7d2	-0.061942883
67	0x3c8e9108	0.01740314
68	0x3dc6a14a	0.09698732
69	0x3e0a1295	0.13483651
70	0x3d942756	0.07234065
71	0xbc89a5c8	-0.016802683
72	0xbcb76328	-0.022386149
73	0x3d94a104	0.07257274
74	0xbe058860	-0.13040304
75	0xbe01a82c	-0.12661809
76	0xbdb5cbef	-0.08876788
77	0xbc23a1f0	-0.009987339
78	0xbc050680	-0.0081192255
79	0xbd86ec28	-0.06588012
80	0x3d77ace8	0.06046763
81	0xbe10b669	-0.14132084
82	0x3d3de64c	0.046362206
83	0xbd4550fc	-0.048172936
84	0xbd3e1f0a	-0.04641632
85	0xbdccd784	-0.10002044
86	0xbdd1ba06	-0.10240559
87	0xbe121025	-0.14263971
88	0x3e136421	0.14393665
89	0x3dbab54e	0.091166124
90	0xbe08dc39	-0.13365258
91	0x3e00907d	0.12555118
92	0xbbfd55a0	-0.0077311546
93	0xbc8fd348	-0.017556801
94	0xbdeec8e0	-0.116594076
95	0x383e9000	4.543364e-05
96	0xbdb57fb7	-0.0886225
97	0xbdf8719f	-0.121310465
98	0x3e1b1c49	0.15147509
99	0xbd92d0fd	-0.071687676
100	0xbd2b4e6a	-0.04182283
101	0xbc143f80	-0.009048343
102	0xbdb72b3c	-0.08943793
103	0xbd39b970	-0.045342863
104	0xbd6c2940	-0.057656527
105	0x3ddfb352	0.109228745
106	0xbda89d9b	-0.08233186
107	0xbe23d8db	-0.16000693
108	0xbddf99be	-0.10917996
109	0xbdd7ea6c	-0.10542759
110	0xbe0ce63f	-0.13759707
111	0xbe1aad26	-0.15105113
112	0xbe1bb292	-0.15204838
113	0x3daefcce	0.085443124
114	0xbdec551e	-0.11539672
115	0x3d6aa1dc	0.057283267
116	0xbc8e1718	-0.017344996
117	0xbd8f8f1e	-0.07009719
118	0xbdbb451e	-0.091440424
119	0xbe11cc53	-0.142381
120	0xbe01e92f	-0.12686609
121	0x3d058ef0	0.03260702
122	0x3c7f75d0	0.0155920535
123	0xbe153571	-0.14571168
124	0x3dffc21a	0.12488194
125	0xbd382e44	-0.044965997
126	0x3ddd3e16	0.108028576
127	0xbda933a1	-0.082618006
128	0x3dd7dd92	0.10540308
129	0x3dba1176	0.09085362
130	0xbd69755c	-0.05699669
131	0x3d553504	0.052052513
132	0xbe283ca1	-0.16429378
133	0x3dc0af42	0.09408428
134	0xbd28cde6	-0.041211985
135	0x3e2537b3	0.16134529
136	0xbdcc0600	-0.09962082
137	0x3c934290	0.017976075
138	0x3ca4bbc8	0.020109072
139	0xbd34324c	-0.04399328
140	0xbdceeec2	-0.10104133
141	0xbdba2f16	-0.09091012
142	0xbb7279c0	-0.0036998838
143	0xbc99ba28	-0.018765524
144	0x3d369040	0.04457116
145	0xbbc1a4c0	-0.0059095323
146	0x3d241188	0.04005578
147	0x3dbc301a	0.09188862
148	0x3debdb01	0.11516381
149	0x3d576034	0.05258198
150	0xbc99f093	-0.018791473
151	0xbd1c6f50	-0.038192093
152	0x3d94bcaa	0.07262547
153	0xbdeab815	-0.11460892
154	0xbe10dc7b	-0.14146607
155	0x3de5250e	0.11188708
156	0x3e253318	0.16132772
157	0x3e0c7afb	0.13718788
158	0x3e241ed0	0.16027379
159	0xbd9ecf17	-0.07754343
160	0x3e07b43b	0.13252346
161	0xbcbb9cc0	-0.022901893
162	0x3d51b9db	0.051202636
163	0x3c8cb306	0.017175209
164	0xbc422eeb	-0.011852006
165	0xbdd1b261	-0.10239101
166	0xbde37e71	-0.11108101
167	0xbd47188e	-0.0486074
168	0x3d3ac845	0.04560115
169	0xbd2c2d1b	-0.042035203
170	0xbdba47a6	-0.09095697
171	0x3ded52de	0.11588071
172	0xbe1cdfe9	-0.1531979
173	0x3d51cf56	0.05122312
174	0x3ce3e428	0.027818754
175	0x3e267593	0.16255789
176	0xbd5ba9d2	-0.05362875
177	0x3e1282e9	0.14307751
178	0xbdc16e47	-0.09444862
179	0x3cbc7044	0.023002751
180	0xbe16c4e1	-0.14723541
181	0x3dc10212	0.09424223
182	0x3d73e330	0.059542835
183	0xbdb8130d	-0.08988009
184	0x3d65bd41	0.05608869
185	0x3df3d9c0	0.11906767
186	0x3c88524f	0.01664081
187	0x3d7d9543	0.061909925
188	0x3d119b26	0.03554835
189	0xbd25d1b1	-0.04048318
190	0x3e09cb96	0.13456568
191	0xbbb7a8e6	-0.005604851
192	0xbde6af4b	-0.11263903
193	0x3d8bc71d	0.06825087
194	0x3d8139ba	0.063098386
195	0x3e0ea40b	0.13929765
196	0x3d0385b0	0.032109916
197	0xbd539ad6	-0.051661335
198	0xbd7a2801	-0.061073307
199	0xbe0437e2	-0.12911943
200	0xbe240a21	-0.16019489
201	0x3dc7a4ff	0.097482674
202	0xbc6e01c6	-0.01452679
203	0xbcdb3478	-0.026758417
204	0x3b043076	0.0020170487
205	0x3d70cd49	0.058789525
206	0x3d81979f	0.063277476
207	0x3bd989f2	0.006638759
208	0x3e205eef	0.15661214
209	0xbe272129	-0.16321243
210	0x39cd801c	0.00039196096
211	0x3be2c180	0.0069200397
212	0x3da4a659	0.08039541
213	0xbdef1492	-0.11673845
214	0x3cc78f18	0.024360225
215	0xbde5c3f1	-0.112190135
216	0xbe1a12f0	-0.15046287
217	0xbd9c41dd	-0.0762975
218	0xbdef6168	-0.11688501
219	0x3c9e5cd5	0.019331375
220	0xbe0e540d	-0.1389925
221	0x3e1b37bb	0.15157978
222	0xbdfbbbde	-0.12291692
223	0x3d20cfd8	0.039260715
224	0xbd4f862d	-0.05066507
225	0xbdb5407c	-0.0885019
226	0x3de0934e	0.10965596
227	0x3e0d0682	0.13772014
228	0x3da816cc	0.08207473
229	0x3e1a5443	0.15071206
230	0x3c7b5fc5	0.015342657
231	0x3dafeb78	0.08589834
232	0x3bff95e0	0.007799849
233	0xbe1c3db9	-0.1525792
234	0xbd180ac5	-0.037119646
235	0xbc962535	-0.018328289
236	0x3d040335	0.03222962
237	0x3d195682	0.037436016
238	0x3d918a49	0.07106454
239	0x3b96244a	0.0045819627
240	0x3d800084	0.06250098
241	0xbe1b321b	-0.15155832
242	0x3e0e9731	0.13924862
243	0xbd3149a4	-0.04328312
244	0xbd979a78	-0.074025095
245	0xbdb17adf	-0.08666014
246	0xbd2f687d	-0.042824257
247	0xbdd4666a	-0.103710964
248	0xbbb28922	-0.0054484764
249	0x3d529a16	0.05141648
250	0xbe0c254a	-0.136861
251	0x3e11f3cf	0.14253162
252	0xbdd13647	-0.10215431
253	0x3dfff680	0.12498188
254	0x3d12a891	0.03580529
255	0x3d4c5610	0.049886763

bias f4 [25]
0	0xbc8aafc8	-0.016929522
1	0xbdb922d7	-0.09039848
2	0xbb9f8fe0	-0.004869446
3	0xbd53f620	-0.051748395
4	0x3cfbd701	0.03074217
5	0x3e007300	0.12543869
6	0x3e226bb2	0.15861395
7	0x3da7d170	0.08194244
8	0x3da0c338	0.07849735
9	0x3b69e195	0.0035687436
10	0xbd4fd5a2	-0.050740846
11	0x3dfd4a1a	0.123676494
12	0x3e1e3115	0.15448411
13	0x3de9d4ee	0.11417566
14	0x3d983684	0.07432273
15	0xbe11ed3d	-0.14250655
16	0xbdde78e5	-0.108629026
17	0xbb5a2f40	-0.0033292323
18	0x3e2518c1	0.16122724
19	0x3e0d21b1	0.13782384
20	0xbe2099b1	-0.15683629
21	0x3d7b6734	0.06137772
22	0xbc2b0480	-0.010438085
23	0x3d428fe4	0.047500506
24	0xbdc51f69	-0.09625132

weight f4 [25, 25]
0	0x3e0ce5c9	0.13759531
1	0xbde99b29	-0.114065476
2	0x3c8c1380	0.017099142
3	0x3cb4fad5	0.022092262
4	0xbe165af7	-0.14683138
5	0xbdc052c6	-0.09390788
6	0xbdba7f50	-0.09106314
7	0x3daa432e	0.08313595
8	0x3e4e559b	0.20149843
9	0xbc918749	-0.017764704
10	0x3c99484a	0.018711228
11	0x3cf6aeba	0.030112613
12	0xbde957f3	-0.11393728
13	0x3df4e8ca	0.119584635
14	0x3e54af41	0.20769979
15	0x3d10b4b8	0.035328597
16	0x3d1e6e78	0.03867957
17	0x3e2873d3	0.16450433
18	0x3ce38e83	0.027777916
19	0x3d85f4f9	0.065408655
20	0xbe080e33	-0.13286667
21	0xbdd3044d	-0.10303555
22	0xbe1dd272	-0.1541231
23	0x3e34e491	0.17665316
24	0xbe3017b0	-0.17196536
25	0x3e3b153b	0.18269818
26	0xbe19b8cb	-0.15011899
27	0x3cd69528	0.02619417
28	0xbd508791	-0.050910536
29	0xbe186547	-0.14882384
30	0xbe3cac8f	-0.18425201
31	0x3d9ecb60	0.077536345
32	0xbdca1a83	-0.09868338
33	0x3e210c89	0.15727438
34	0x3e0e6185	0.13904388
35	0x3bba518c	0.0056859907
36	0xbe3edf20	-0.18639803
37	0x3dbc07f2	0.09181203
38	0xbe0f3893	-0.13986425
39	0x3e2e5653	0.17025118
40	0xbd896798	-0.06709212
41	0x3e099d8b	0.13439004
42	0xbd7e52db	-0.062090736
43	0x3e010791	0.12600543
44	0x3d0e9cc3	0.03481747
45	0xbdf96aaa	-0.12178548
46	0x3e390d27	0.18071423
47	0x3e4616d3	0.19344644
48	0x3dbd368e	0.09238921
49	0xbe42f8a3	-0.1904016
50	0xb58c0000	-1.0430813e-06
51	0xbdf7009b	-0.12060662
52	0x3e11602d	0.14196844
53	0xbe2355cd	-0.15950699
54	0xbdd24dfc	-0.102687806
55	0xbd806319	-0.062689014
56	0xbe0ac866	-0.13553008
57	0xbd38f6c0	-0.045157194
58	0x3e26734f	0.16254924
59	0x3ddf6c55	0.109093346
60	0xbdbaa2a5	-0.09113053
61	0xbe37c6de	-0.17946956
62	0xbd8b8f44	-0.06814435
63	0xbe21f952	-0.15817764
64	0xbdb7d288	-0.089757025
65	0xbe08339e	-0.1330094
66	0x3dc082bf	0.09399938
67	0x3d988c4e	0.07448636
68	0xbcbc6d91	-0.023001464
69	0x3e43b1a7	0.19110738
70	0x3e436d4a	0.19084659
71	0x3e305d37	0.17223059
72	0xbe16ca0e	-0.14725515
73	0x3e236657	0.15957008
74	0xbce78aee	-0.028264489
75	0xbe139360	-0.14411688
76	0x3e31dea3	0.17370085
77	0x3c71bf50	0.014755085
78	0xbe235e20	-0.15953875
79	0x3de9f545	0.114237346
80	0x3da484e3	0.08033159
81	0xbd3405d3	-0.043950867
82	0x3e37dd1d	0.17955442
83	0xbe18b231	-0.14911725
84	0xbe07d831	-0.13266064
85	0x3d43ebea	0.047832407
86	0xbdb0a355	-0.08624903
87	0x3e0b3e69	0.13598026
88	0x3dc0cc5b	0.09413978
89	0xbc6cc8e3	-0.014452192
90	0xbe2c4060	-0.16821432
91	0xbe0d2ee8	-0.13787425
92	0x3e253637	0.16133963
93	0xbd2d6f73	-0.042342614
94	0xbe14b51c	-0.14522213
95	0xbd46c5ba	-0.04852841
96	0x3b865ac0	0.0041001737
97	0x3e455713	0.19271497
98	0x3c7cc6bc	0.015428241
99	0xbdee66f6	-0.11640732
100	0xbe44dc1f	-0.19224595
101	0xbdf93094	-0.12167469
102	0xbdf0a257	-0.11749714
103	0xbd5b73a7	-0.05357709
104	0x3e3eb480	0.18623543
105	0x3d20d337	0.03926393
106	0xbdb88337	-0.09009402
107	0xbe0c1fe4	-0.1368404
108	0x3d39f169	0.045396242
109	0xbce6ff9d	-0.028198058
110	0xbd066eb0	-0.032820404
111	0xbd879ed7	-0.06622093
112	0x3ddb787e	0.107163414
113	0xbe3a9f0b	-0.18224733
114	0x3de30c9b	0.11086389
115	0xbe19d493	-0.15022497
116	0x3e1ae015	0.15124543
117	0x3d05a3b9	0.03262684
118	0xbda9750f	-0.0827428
119	0xbd1f383d	-0.038871992
120	0x3c7e8520	0.015534669
121	0xbe0087bd	-0.1255178
122	0x3d83a28b	0.06427487
123	0xbdd2c6aa	-0.102917984
124	0x3d3404e9	0.043949995
125	0xbd6011cc	-0.054704472
126	0x3df2692a	0.11836465
127	0x3d649c54	0.05581315
128	0xbe13c4ea	-0.14430586
129	0xbd770aed	-0.060313154
130	0xbc762903	-0.015024426
131	0x3cfca197	0.03083877
132	0x3d98f192	0.07467951
133	0x3e5c8d44	0.21538264
134	0x3e4cc482	0.19996837
135	0xbdc2cec7	-0.09512096
136	0xbd9699c7	-0.073535495
137	0xbdf238e3	-0.118272565
138	0xbe212cb9	-0.15739717
139	0xbdcc368b	-0.09971341
140	0x3e04601a	0.12927285
141	0xbd633688	-0.055471927
142	0xbdab054b	-0.08350619
143	0xbd59a4ef	-0.05313581
144	0x3e26f536	0.16304478
145	0x3e3f880e	0.18704244
146	0x3d833112	0.06405844
147	0x3b8022ae	0.003910384
148	0xbdc4a5a1	-0.09601904
149	0x3e4e0a2e	0.2012107
150	0xbb994960	-0.0046779364
151	0xbe1685ec	-0.14699525
152	0x3e3fb8f3	0.18722896
153	0x3dc191bf	0.09451627
154	0x3d51d7bc	0.05123113
155	0xbe4b123c	-0.19831175
156	0xbe06bf52	-0.1315892
157	0xbde6acda	-0.112634376
158	0xbda2d1c6	-0.07950167
159	0x3d6b1aee	0.05739873
160	0x3e40c82b	0.18826358
161	0x3e1c5c17	0.15269504
162	0xbdc148b3	-0.094376944
163	0xbd910745	-0.07081465
164	0x3d2e2466	0.04251518
165	0xbe341d9b	-0.17589419
166	0x3e12b65b	0.14327376
167	0x3cb028b5	0.021503786
168	0x3dfe878b	0.124281965
169	0x3df6b376	0.12045948
170	0x3e329a3d	0.1744165
171	0x3e2c3fe7	0.16821252
172	0xbdc3d3d7	-0.095618896
173	0x3cc9c53f	0.024630187
174	0x3d81c204	0.06335834
175	0xbe2ee6dd	-0.17080255
176	0xbd061034	-0.032730296
177	0xbd814a30	-0.06312978
178	0x3da2a683	0.07941916
179	0xbd908038	-0.07055706
180	0x3c4bbfb9	0.012435847
181	0x3d98f642	0.07468845
182	0xba936a80	-0.001124695
183	0x3d63f468	0.055653006
184	0xbe321d5e	-0.17394015
185	0xbb9d3bdb	-0.004798395
186	0x3e4d232c	0.20032948
187	0x3dad4512	0.0846044
188	0xbd396114	-0.045258597
189	0x3e2661f0	0.16248298
190	0x3e2bc0a4	0.16772705
191	0xbdf8e20f	-0.12152492
192	0xbdffaef5	-0.12484542
193	0x3dbd995a	0.09257765
194	0xbd222721	-0.039588097
195	0xbd604095	-0.05474909
196	0x3da41336	0.08011477
197	0x3de886f3	0.113538645
198	0x3e473dbc	0.19457144
199	0x3e31845c	0.17335647
200	0xbc90f228	-0.017693594
201	0xbdba31ae	-0.09091507
202	0xbdf2b057	-0.118500404
203	0xbd4cbe87	-0.04998639
204	0x3cbfb916	0.023403686
205	0x3e4155fe	0.1888046
206	0xbe1bac05	-0.15202339
207	0x3dc44dca	0.095851496
208	0x3ce3a39c	0.027787976
209	0xbd8972dc	-0.06711361
210	0x3e4d0631	0.20021893
211	0xbd8125e2	-0.06306054
212	0x3de97d52	0.11400856
213	0x3dd1deb0	0.102475524
214	0x3d1c2a55	0.03812631
215	0x3ddef8f8	0.10887331
216	0xbe0e92ad	-0.1392314
217	0x3cd3d7a0	0.025859654
218	0x3e1659b2	0.14682654
219	0xbd87f58a	-0.0663863
220	0x3d240e51	0.040052716
221	0xbe0cfd00	-0.13768387
222	0xbdac6c74	-0.08419123
223	0xbd164703	-0.036688816
224	0x3e0a60f4	0.13513547
225	0x3e41394d	0.18869515
226	0x3df307c2	0.11866714
227	0x3c8e4df0	0.017371148
228	0xbdabc450	-0.08387053
229	0xbde300d4	-0.11084142
230	0x3e1d3661	0.15352775
231	0xbd7c5eb0	-0.06161374
232	0x3d7c344c	0.06157331
233	0x3ba1d1e7	0.0049383524
234	0x3e0f1362	0.13972238
235	0x3dfdd81e	0.12394737
236	0x3da7db7a	0.08196159
237	0x3dcc5542	0.09977199
238	0xbd28de21	-0.041227464
239	0x3c17bb2f	0.009260937
240	0x3c76027d	0.015015242
241	0xbdb8c1de	-0.09021352
242	0xbd2d698e	-0.042336993
243	0xbd9ce22b	-0.076603256
244	0x3d756a46	0.059915803
245	0x3c934176	0.01797555
246	0x3df08792	0.11744608
247	0xbd8efb97	-0.06981581
248	0xbcc9d78d	-0.024638915
249	0xbda62c61	-0.08113933
250	0xbc464300	-0.012100935
251	0x3e0f902e	0.14019844
252	0x3e4933c1	0.19648649
253	0x3daf6309	0.08563811
254	0x3d036214	0.032075956
255	0xbd63a09f	-0.055573102

bias f4 [25]
0	0x3d5e87c2	0.054328687
1	0xbe18dcc1	-0.14927961
2	0xbe09624a	-0.134164
3	0x3d5f4bbf	0.054515596
4	0x3d76eb29	0.06028286
5	0x3c48b084	0.012249116
6	0xbe3eb035	-0.18621905
7	0x3db1590b	0.08659562
8	0xbe1a47a6	-0.15066394
9	0xbdad55c4	-0.08463624
10	0x3e3b55b7	0.18294416
11	0xbdee6412	-0.11640181
12	0x3e3f55b7	0.18685041
13	0x3dce7bb2	0.10082187
14	0x3c4e2ddc	0.012584176
15	0x3e418970	0.18900084
16	0xbd6d7364	-0.057971373
17	0xbdbd05ce	-0.09229623
18	0xbc11c84e	-0.008897854
19	0x3dc41486	0.09574227
20	0xbd7beefd	-0.061507214
21	0xbe4c0231	-0.19922711
22	0xbdf8f7df	-0.12156653
23	0xbe2d283f	-0.16909884
24	0x3e258725	0.16164835

weight f4 [4, 25]
0	0xbd580338	-0.052737445
1	0xbcc529d4	-0.024067797
2	0x3d8580a6	0.06518678
3	0x3d9eb599	0.07749481
4	0xbdac0d23	-0.08400943
5	0x3e384450	0.17994809
6	0xbd896256	-0.06708209
7	0x3e21d4de	0.15803859
8	0x3e5960d8	0.21228349
9	0xbcc3552f	-0.02384433
10	0x3e84c6e7	0.25933
11	0x3e5fab22	0.21842626
12	0x3e90d73a	0.28289205
13	0x3d241297	0.04005679
14	0x3e1751e6	0.14777336
15	0x3c08cca7	0.008349574
16	0x3e2cd3d2	0.16877678
17	0x3d30bd9b	0.043149572
18	0x3ddc8b9c	0.10768816
19	0x3e2ac038	0.16674888
20	0x3da86ea4	0.08224228
21	0xbdf52e94	-0.11971775
22	0x3e093e8c	0.13402766
23	0x3d343976	0.04400011
24	0x3eae63c3	0.34060487
25	0xbe3afd41	-0.18260671
26	0xbc98213b	-0.018570533
27	0xbdc488ac	-0.095963806
28	0xbe632a93	-0.2218421
29	0xbd4e83cc	-0.05041866
30	0xbe49ba5e	-0.197
31	0xbbdb5263	-0.006693171
32	0xbdd5b4bd	-0.10434864
33	0xbd599c0f	-0.053127345
34	0xbe7f0be3	-0.24906878
35	0xbdd78333	-0.10523071
36	0xbe8e13fa	-0.27749616
37	0x3dbd27ae	0.09236084
38	0xbbbcc0b9	-0.005760279
39	0xbdb6b095	-0.08920399
40	0xbea0eef8	-0.3143232
41	0xbdadbaea	-0.08482917
42	0xbe2aa542	-0.16664603
43	0xbe086226	-0.1331869
44	0x3d4986d2	0.04920084
45	0xbdd06b3a	-0.10176702
46	0xbdb63bdb	-0.08898135
47	0xbcde7ed6	-0.02716009
48	0xbe1ed67f	-0.15511511
49	0xbd7acf1a	-0.061232664
50	0xbe841d78	-0.25803733
51	0xbdcee195	-0.1010162
52	0x3d1c3f28	0.038146168
53	0x3de7799c	0.11302492
54	0xbd8ee1f9	-0.069766946
55	0x3cc17abc	0.023618095
56	0xbe32f9b6	-0.1747807
57	0xbce75bb1	-0.028241964
58	0xbdbbc11b	-0.09167691
59	0x3d70c4cf	0.05878144
60	0x3d4a29bb	0.049356204
61	0xbe883c8d	-0.26608697
62	0x3df4ccb4	0.119531065
63	0x3dd2e422	0.10297419
64	0xbe799185	-0.24371918
65	0xbe3ce12c	-0.18445271
66	0x3c5dcec3	0.013538065
67	0x3dc69261	0.09695888
68	0xbcd72536	-0.02626286
69	0xbd1f1f1e	-0.038848035
70	0x3d0d1687	0.034445312
71	0xbe634357	-0.22193657
72	0xbe27a17e	-0.16370198
73	0xbe1fac62	-0.15593103
74	0xbe892fae	-0.2679419
75	0x3e2b6921	0.16739322
76	0xbc8c9935	-0.017162899
77	0x3ddc636f	0.10761153
78	0x3e16eb7a	0.14738265
79	0xbe045b10	-0.12925363
80	0x3e587a20	0.21140337
81	0xbdd90ae4	-0.1059778
82	0x3dc5574d	0.09635792
83	0xbc8d5dd5	-0.017256657
84	0x3e23daa0	0.16001368
85	0x3d2e4096	0.042542063
86	0x3e0089f0	0.12552619
87	0x3e41ea5f	0.18937062
88	0x3e1daea9	0.15398659
89	0xbdd4a061	-0.10382152
90	0xbd5a1969	-0.05324689
91	0x3e5561e6	0.20838127
92	0x3e6e6ece	0.23284456
93	0xbdd24cab	-0.102685295
94	0x3e2d6bb3	0.16935615
95	0x3d9624ba	0.07331224
96	0xbd71d1b9	-0.059037898
97	0x3e7ce294	0.24695808
98	0x3e700c95	0.234423
99	0x3d86d692	0.06583895

bias f4 [4]
0	0x3e0048b5	0.12527736
1	0xbea60c30	-0.32431173
2	0xbe0cc033	-0.13745193
3	0xbd639761	-0.055564288
